financial_model.pth (torch, 13464 bytes, 5 tensors)

layer_1.weight f4 [64, 8]
00000000: e25a 8dbe 2582 65be c402 da3d 0808 88be
00000010: eb97 283d da8a 77be f67f a9bb 1963 83be
00000020: 7bfe f5bd 9d79 9ebe 92c7 223e 822d 81be
00000030: 3f4a b9bc 6472 a5be ca7c 2f3e a1b9 84bc
00000040: 4006 8bbd 106b 67be 2e66 22be fcb6 9cbe
00000050: 4680 323e 63ca 12be b9bd c2bc ef0b 3d3e
00000060: 67f7 203e 4521 05be a865 87bc 2915 3fbe
00000070: 6d66 89be a662 113c e77b 153e 042d b23e
00000080: ee01 0f3e 3a74 42bc 5065 703e 4747 93be
00000090: 1c83 f53d 298b a93d c836 803d 8de0 35be
000000a0: 13ee 9d3e b347 523e 74e4 9a3e 655c a33e
000000b0: 82f1 6d3e e182 89bd 199b 9a3e 0a90 a6bd
000000c0: bb95 8c3e 94d6 f53d a33b 6b3d bb90 f13d
000000d0: 89b8 4d3e 2167 5dbe 61aa 21be 8ad2 9c3d
000000e0: 8329 75be f0da 003d d89d 93bd f013 c8bc
000000f0: f834 6e3e f010 9dbe ebab cd3d 097c 833e
00000100: dc54 f33d f057 eb3d dc72 88be 514f c53d
00000110: 0ce3 b93d a8de 1abd f928 3f3e 34d9 f6bd
00000120: a8ae 6f3e e5c2 8abe f5ef 373e 3c14 9c3e
00000130: c33d 87be ca15 24be 1f66 98bd bb9d 8e3e
00000140: 5ee3 3b3e f570 11be dd9c 8e3d 5579 ce3d
00000150: a456 a2be 1695 1a3d 1a83 873e b0ad a53e
00000160: 9781 a03e 93fd c03d 1d0a d9bd 4cc6 153c
00000170: af50 813c b339 7dbe d326 5d3e b8dd 8f3e
00000180: 6163 2cbe ab35 dabd 28df 763e 262f 78bd
00000190: dfca 40bc c497 b9bd 5ee4 533e c956 e1bd
000001a0: 925b a23e 212e 0dbc 3ee9 d7bd 24b6 74bd
000001b0: edbe ddbd f69b aa3e fb0f 3f3c 64aa 70bc
000001c0: ea99 84be 3a13 fdbd ce27 433d 849c 11bd
000001d0: fb78 8ebd 8c42 9cbe 5b18 a53e 50eb 003e
000001e0: 9529 76be 6c68 9fbe 5673 a1be 855f e7bb
000001f0: 2c33 103e 3e4f e3bd 39b8 453e 3ec0 0bbd
00000200: 2b15 87be 438f 4abe 0750 45be 72e9 94be
00000210: 81b9 37be 00e2 f93c 508b 8bbe cb7f 92be
00000220: 7908 e33c 2c69 51be 253c 943e 84bf b23e
00000230: 3926 a53e 6f4d bd3d 5989 5dbe f538 febd
00000240: c3ed 213e 80d6 aa3d 867b 123d 67af 4b3d
00000250: 4cd6 f4bd 6459 85be 2ac4 afbe 4554 2a3d
00000260: 30f0 a5be 2ec9 8ebe a0e2 18be 8035 4dbc
00000270: e791 1a3e 4f85 81be 4e8c d53d 3c0a 0a3e
00000280: 377d 81be cb2e 30be 2489 a43e 725a 423e
00000290: e009 aebb 0d7f 87bd bc47 543e 3278 99be
000002a0: e62c 30bd 1a64 73be e54b a7be 23b8 3d3e
000002b0: 0ca6 783e dba4 a1be 309b 46be cf53 8a3e
000002c0: 31fe bebe b6d7 5bbe dafc 923e b540 303e
000002d0: 812a 29be c371 afbe 5150 c13c c9fb 953e
000002e0: c068 253d 970b ac3d 4e3a 63bd c7ce 033c
000002f0: 8c6b 853e aaf6 5fbe 0737 62bd e7fc a43c
00000300: 62de 9ebc deb2 9b3e a192 50be 4b3d 903e
00000310: 0610 aebe 439e 1fbe e9c3 4dbc 7e31 123e
00000320: 7d52 1a3e 8147 89be 1cc3 a1bd 957d 683e
00000330: 1ef8 5dbe 5f08 9b3d cf65 f5ba af33 2b3e
00000340: cb27 82be 8140 edbd a981 823e 23f7 323d
00000350: 7f9d ac3d fefd f2bd c348 68be 7a2c 93be
00000360: 18a6 9b3e 47eb 7fbe 8377 58be 1c56 733d
00000370: 867c ad3e b138 9fbe 0c8e 0e3e a16d 89be
00000380: a35a 8d3e f4d7 6a3e 21ba 1e3e 58b1 32be
00000390: b40c 803e c4f1 5ebe 8a2c 8d3e 4db1 b23d
000003a0: 11a4 8cbe 3327 4ebe d3b1 56be eea9 01be
000003b0: 9c60 783e e1b2 833d 2b0b 043e 7758 99be
000003c0: 2c4d 283e 6652 5bbe 5f38 8e3d ad4a ed3b
000003d0: 2ee0 013e 923b 773e 4948 5cbe d69d e0bd
000003e0: 5285 4c3e 4687 e8bd 176d 423d 5fc2 09be
000003f0: 1231 c63d f291 7a3e fba2 8e3e 6b49 893d
-0.276084 -0.22412927 0.10645059 -0.26568627 0.041160505 -0.24174061 -0.005172725 -0.25661543
-0.12011429 -0.3095216 0.15896443 -0.25230032 -0.022618411 -0.32313836 0.17137447 -0.016201796
-0.067883015 -0.22599435 -0.15859291 -0.30608356 0.17431745 -0.14335017 -0.023772107 0.18461584
0.15719377 -0.13000973 -0.016527966 -0.18660416 -0.26835957 0.008873617 0.14598046 0.3479997
0.1396558 -0.011868531 0.23476148 -0.28765318 0.11987898 0.08278496 0.06260449 -0.1776144
0.308457 0.20535164 0.3025242 0.3190643 0.23236659 -0.06714416 0.30196455 -0.08132942
0.27457985 0.12003818 0.05742992 0.11795183 0.20089926 -0.21621372 -0.1578765 0.07657345
-0.23941617 0.031458795 -0.07207841 -0.02442357 0.23262393 -0.30676985 0.100425564 0.2568057
0.1188142 0.11491382 -0.2665013 0.09634269 0.09076509 -0.037809998 0.18667974 -0.12053147
0.2340647 -0.27101818 0.1796263 0.30484188 -0.26414308 -0.16023937 -0.07441353 0.27854714
0.18348452 -0.14203246 0.06963513 0.10081736 -0.31706727 0.037739836 0.2646721 0.32359076
0.3134887 0.094233654 -0.10597632 0.009141516 0.015785543 -0.24729042 0.21596842 0.28098845
-0.16834785 -0.106547676 0.24108565 -0.06059184 -0.011767118 -0.0906215 0.20692584 -0.11002881
0.31710488 -0.008616955 -0.10542534 -0.059744015 -0.10827432 0.33322114 0.011661525 -0.014689062
-0.25898677 -0.12357183 0.047645383 -0.035549656 -0.06956669 -0.3051952 0.32245144 0.12589765
-0.240393 -0.31134355 -0.31533307 -0.0070609474 0.1408202 -0.110990986 0.19308557 -0.034118883
-0.26383337 -0.19781213 -0.1926881 -0.29084355 -0.17941858 0.030503273 -0.27254725 -0.28613123
0.027714001 -0.20450276 0.28952137 0.3491174 0.32255724 0.09243285 -0.21634425 -0.124132074
0.15813355 0.08341694 0.035762332 0.049727824 -0.119549364 -0.26044762 -0.3432935 0.041584272
-0.3240981 -0.27887863 -0.149302 -0.012524962 0.1509472 -0.2529702 0.104271516 0.13480467
-0.25290844 -0.1720535 0.3213588 0.18979815 -0.005311236 -0.0661603 0.2073049 -0.29974514
-0.04301157 -0.23768654 -0.3267509 0.18527274 0.24282092 -0.31571087 -0.19395137 0.27017066
-0.37303308 -0.21469006 0.28708535 0.17212184 -0.1652012 -0.3426648 0.023597868 0.2929366
0.0403831 0.08400648 -0.055475526 0.008044905 0.26058614 -0.21871439 -0.05522826 0.020140124
-0.01939315 0.30409902 -0.20368434 0.28171763 -0.339966 -0.15587716 -0.012558916 0.14276692
0.1507053 -0.26812366 -0.07898542 0.22704156 -0.2167668 0.07569956 -0.0018722358 0.16718934
-0.25420985 -0.11584569 0.25489548 0.04369272 0.084284775 -0.118648514 -0.22684006 -0.2874487
0.30400157 -0.24992095 -0.2113934 0.059408292 0.33884066 -0.3109794 0.13921374 -0.26841453
0.27608213 0.22933942 0.1550069 -0.17450464 0.25009692 -0.21771914 0.27573043 0.08725224
-0.27468923 -0.20132141 -0.20966272 -0.1266248 0.24255604 0.06430603 0.12894885 -0.29950306
0.16435689 -0.21418151 0.06944346 0.007241568 0.12683174 0.24143818 -0.2151195 -0.10967605
0.19972733 -0.11353926 0.047467317 -0.13453053 0.09677328 0.24469736 0.2785872 0.067034565

layer_1.bias f4 [64]
00000000: f769 5bbd 0436 0ebe fd51 863e 24d1 11be
00000010: 9c56 413e 5fa7 97bd 40b0 33be 8ac2 e43d
00000020: 28d0 553e 396d 37be f392 d73c 49ec 86be
00000030: bc45 dabb db90 3f3d 6ea7 b6be e189 3fbe
00000040: acc5 923e 8f91 5bbe 1579 423d ceee 323e
00000050: f8a2 a33e 153f 9b3e c968 d6bb b608 67bd
00000060: eec1 38be a4ea 1bbe 1cde 00be 203d a3be
00000070: e8e2 233c e35d 7c3e 7b3e 92be c525 853e
00000080: 73e2 27be 0ad8 9abe 734b a7bd 6f0a 52be
00000090: 0437 4e3e 10f6 b6be 8e68 53be 886f 473b
000000a0: 6628 d5bd 080c ca3d ce5d 9fbd f151 aebe
000000b0: 8660 5fbc 64f2 edbc e4bb 7dbe 005d 4cbe
000000c0: a32f c73c 7898 47be 115d 7dbd 5e30 8abe
000000d0: a097 a13e c350 08be d74e 203e a359 35bd
000000e0: f6d9 39be d853 8a3e 5d0b 29be 06fb 893e
000000f0: 3ea3 cebd 6050 ae3d 1787 45bd 45a1 3ebd
-0.053567853 -0.13887793 0.26234427 -0.14239937 0.18880695 -0.074049704 -0.17547703 0.11169918
0.20880187 -0.17912759 0.026315188 -0.26352146 -0.006661145 0.046769004 -0.35674614 -0.1870494
0.28666437 -0.21442245 0.047478754 0.1747391 0.31960273 0.30321565 -0.006543253 -0.05640479
-0.18042728 -0.15226227 -0.12584728 -0.31882572 0.010002829 0.2464519 -0.28563294 0.26005378
-0.16394977 -0.3024295 -0.08168688 -0.20511793 0.20138174 -0.35734606 -0.20645353 0.0030431468
-0.10408096 0.09865576 -0.07781564 -0.3404689 -0.013633853 -0.029046245 -0.24778706 -0.19957352
0.024314707 -0.19491756 -0.061856333 -0.26990026 0.31560993 -0.13312058 0.15655075 -0.044274937
-0.18149552 0.27017093 -0.16508241 0.26949328 -0.1008973 0.08511424 -0.048224535 -0.046540517

layer_2.weight f4 [32, 64]
00000000: 5d4c 06be 4218 df3c d2b3 963c 0824 edbd
00000010: 70c2 7c3d 0328 b9bc 05f2 bdbd 54cb a7bd
00000020: a301 69bd a4ac fdbd af0f 013c 9e41 02bb
00000030: a9be a4bd 8b03 a63d 68d1 88bc f4ba a93d
00000040: eb86 8cbd 8436 3a3d 783e 223b 736b 95bd
00000050: f6d3 d43d cc49 5fbd e434 b0bd c07c 9fbd
00000060: e048 f73b 2e20 81bd 86e9 463d 1a54 9a3c
00000070: 75a9 34bd fba5 1dbd 6d3d 813c 31c0 65bd
00000080: 106d d33d 1ebc 003d a37d ce3d 2027 d93c
00000090: 4e17 9e3d 20cc 9bbc bc6f ab3d a5ff f6bd
000000a0: 598a a53d 8b9b 1f3d 2bd8 ca3b 6772 e2bc
000000b0: c7d1 24bd f01f a5bd 90cd 9d3d a1a3 813d
000000c0: 24cc 00be 130a eb3d cc9b edbd f0b0 63bc
000000d0: 546a 283c 7f19 b2bd f41f f4bd 3fd6 903d
000000e0: 1adb 8abb 9eed 97bd f03c f1bd 3cee 75bd
000000f0: 2e6b f3bd a41d 1cbd 10ec cd3d fc52 9fbd
00000100: 4aa4 07bd 4213 c6bd 1e74 90bd 6808 8a3c
00000110: 584b 9e3c 72e7 a53d 2a06 e9bd 77b5 cfbd
00000120: 2ea3 0c3d eca2 023d 66a3 b4bd 10bd 353d
00000130: 2a69 4ebd 403e 1abd c86c f53d c621 403d
00000140: fd87 0fbe cd86 a03d 1009 01be d041 c53d
00000150: d14b 713d dec2 583d 1ae3 91bd 942a 6abd
00000160: d517 21bd 13e6 113d 96b8 6f3b 8f51 9abc
00000170: 5c94 b9bd ce84 0f3d e049 9e3d 039e 9bbd
00000180: 16da 6a3c bb12 47bb 8987 c0bd b8bd d2bc
00000190: 03c4 d1bb 55b6 9b3d ef50 a23d 436c f1bd
000001a0: 1c65 cdbd ffa6 d0bc dfbc eebd 46ab f53d
000001b0: 217a e9bd 71a9 0abd 3006 773d c0f9 a03d
000001c0: ba48 c2bd 81c6 bdbd 055a bd3d f72c b1bd
000001d0: 06e9 a5bd 59e6 c7bd 177e c9bd e234 99bd
000001e0: 1a7e 8f3d 83b5 acbc cb71 c1bc 6fdf 14bd
000001f0: e9ab ea3c fa61 98ba d524 b7bd bc93 a9bd
00000200: 5e5e 853d 8d1f 59bc d604 87bd 9d3f aebd
00000210: 5ce5 af3d 3b3c 223d 4de7 993c c693 7c3d
00000220: 660a 913d c126 d93c 07f7 9e3d 1b6f 68bc
00000230: 85ec 5f3d 4196 64bd 310d c43d 1358 c4bd
00000240: 9aec e3bd fdc0 1a3b 118f bcbd d7d6 36bd
00000250: 97bf 0fbe a896 edbb 0d30 063d fdef 4d3d
00000260: c91a c4bd 8fc9 f6bc d7ac 8e3d 6f4c cfbd
00000270: e9b6 1f3d 3d29 8e3d 0b99 8d3d 838f 593d
00000280: fc0b 77bd 3ba9 fabd 7021 6f3b ed30 6abd
00000290: 9e97 de3c c55b 00bd b129 2b3d a339 4e3c
000002a0: 288e 56bd ceba 05be 6605 62bd 940f 64bd
000002b0: 9d2c 5dbc 9290 9fbc 08a6 e8bd 48fd 92bd
000002c0: f0b1 b93d 3be0 88bd 3beb 9cbc b585 9a3d
000002d0: 32f2 083d c523 473c afc4 6ebc 6f33 d73d
000002e0: 2251 8a3d 1f74 783d a2b5 7639 67a9 7dbc
000002f0: 1745 6dbd e7fa 9f3d f9c1 bebd dab0 f4bc
00000300: 9a63 b23d 68c0 943d 8212 a7bd 2147 203d
00000310: 494c d63d 6192 c5bd dbc8 d5bd aeca d8bd
00000320: 33c5 833d 71dd 97bd 5889 4fbc f4be e0bd
00000330: a618 e0bd de58 043d d8e7 483d 0ca3 37bd
00000340: 4561 1cbd d826 83bd 1284 c23d 8d3d 56bd
00000350: 39e0 91bc 85f0 b7bd 97f7 69bd 7eac e5bd
00000360: 2061 6dbd f335 c63c 1790 f23d 301a 1dbe
00000370: 6449 8e3d e566 663d fd68 9fbc f11e 00be
00000380: da2d 9dbd 8c04 c83c 6537 9d3d 97ae c43d
00000390: 5257 90bd 80da f1bd 6bcd 11bc 9830 1e3a
000003a0: 8328 e7bd e9f8 a13c 736c e03d 0d3c 0cbd
000003b0: b292 cd3d 20a7 ffbd f1bb da3d 504b e03d
000003c0: f88f 943d 23c0 8b3d 065d bfbd e498 b63d
000003d0: 7ad2 46bd 23b0 a33c 4295 913d a070 e5bc
000003e0: 2e47 cabd 6419 b03b 3dac c43d f515 9dbd
000003f0: ac39 593d 5698 6abd 8db6 d4bd 5413 dabc
-0.13115068 0.027233247 0.018396292 -0.11579138 0.061708868 -0.022602087 -0.09274677 -0.08193079
-0.056886327 -0.12386444 0.007877274 -0.0019875537 -0.08044178 0.081061445 -0.016701415 0.082876116
-0.06861671 0.045462146 0.0024756473 -0.07295885 0.10391991 -0.054513738 -0.08603838 -0.07787466
0.007546529 -0.06304966 0.04856255 0.01883893 -0.04410692 -0.03848837 0.01577636 -0.05609149
0.103235364 0.031429403 0.10082557 0.026507914 0.07719289 -0.019018233 0.08370921 -0.12060479
0.08083028 0.038966697 0.00619032 -0.027642442 -0.04023912 -0.08062732 0.077052236 0.06330038
-0.12577873 0.11476531 -0.116019815 -0.013897166 0.010279257 -0.08696269 -0.11920157 0.07072114
-0.0042375447 -0.07418369 -0.11779201 -0.06004165 -0.11885677 -0.038114205 0.10054791 -0.077795
-0.033115663 -0.09671642 -0.070533976 0.016849712 0.019323036 0.08100785 -0.11378129 -0.101420335
0.034335308 0.031893656 -0.08820228 0.044369757 -0.05039326 -0.037657022 0.11983639 0.04690721
-0.14016719 0.07838211 -0.12601113 0.09631693 0.058910195 0.052920215 -0.07123394 -0.057169512
-0.03932937 0.035619806 0.0036578528 -0.018837718 -0.090615004 0.03503876 0.07728934 -0.07598498
0.014334222 -0.0030376154 -0.09400851 -0.02572523 -0.0064015402 0.076031365 0.07925593 -0.117882274
-0.10029051 -0.025470255 -0.11657118 0.119955584 -0.11400247 -0.033853 0.060308635 0.07860136
-0.09486528 -0.09266377 0.092456855 -0.086511545 -0.08101086 -0.09760732 -0.09838503 -0.0748079
0.07006474 -0.021082645 -0.023613831 -0.036345895 0.028646426 -0.0011625879 -0.08942572 -0.08280131
0.0651214 -0.013252151 -0.06592719 -0.08508227 0.08588669 0.03960822 0.01878705 0.061664365
0.070820615 0.026507737 0.077619605 -0.014186646 0.054668922 -0.055807356 0.095728286 -0.09587111
-0.111291125 0.0023613565 -0.09206975 -0.04463848 -0.1403793 -0.0072506256 0.03276067 0.0502777
-0.09575421 -0.030125408 0.0696656 -0.101220004 0.038992796 0.06941459 0.06913956 0.05311538
-0.060314164 -0.122393094 0.0036488436 -0.057175566 0.027171906 -0.03133752 0.041787807 0.012586984
-0.052381665 -0.13059542 -0.05518093 -0.05567892 -0.013499406 -0.019478116 -0.11359793 -0.07177216
0.09067142 -0.066833936 -0.019155135 0.07545034 0.0334341 0.012154524 -0.01457326 0.10507857
0.06753756 0.060657617 0.00023528052 -0.015482283 -0.057927217 0.07811528 -0.09314341 -0.029869486
0.08710404 0.07263261 -0.08157827 0.039130334 0.10463769 -0.0964706 -0.10438701 -0.10585533
0.06434097 -0.074152835 -0.012667023 -0.109739214 -0.10942201 0.032311313 0.04904923 -0.044833228
-0.0381787 -0.06403893 0.09497847 -0.052304793 -0.017807113 -0.08981422 -0.057120886 -0.11214541
-0.057953954 0.024195647 0.11843889 -0.15342021 0.06947592 0.05625047 -0.019459242 -0.12511803
-0.07674761 0.02441623 0.07676581 0.09603613 -0.07047905 -0.11809254 -0.008899073 0.0006034463
-0.11287024 0.01977201 0.10958185 -0.034236956 0.100377455 -0.124830484 0.10680378 0.10951865
0.07254022 0.068237565 -0.09343915 0.0891588 -0.04854057 0.01998145 0.07108547 -0.028007805
-0.09876858 0.0053741205 0.09603164 -0.076702036 0.053033516 -0.057274185 -0.10386381 -0.026620544

layer_2.bias f4 [32]
00000000: cb51 493d a1ea fe3c 250c 52bd 6170 67bd
00000010: 9677 36bd 6aab 203d 72f7 3f3c 34ee 3f3d
00000020: 3df5 92bc dc25 913d 488f a43d 8026 5cbd
00000030: 0950 78bd 25cf 25bd e47a 193e 33ae 033e
00000040: 0d38 233c b8cf bdbd 427d e1bd df97 ecbd
00000050: e42b 13bd d8ae 963d 96f5 2bbd 749f acbc
00000060: dd03 133d 9c0a e7bd 595e f3bc 4683 8abd
00000070: 521d b13c 956f 0c3d d212 723d b9b4 393d
0.04915027 0.03111774 -0.051281113 -0.056503657 -0.04454764 0.039225973 0.01171671 0.046858028
-0.017939204 0.07087299 0.08035141 -0.053747654 -0.060623202 -0.04048075 0.14988285 0.1285942
0.009962094 -0.09268135 -0.11010219 -0.115524046 -0.03593053 0.073575675 -0.041982256 -0.021072127
0.035892356 -0.112813205 -0.029708074 -0.0676332 0.021620426 0.0342861 0.05909998 0.045338366

layer_3.weight f4 [1, 32]
00000000: 26ad 0dbd 90bd a13d 263c a73d 752e 343d
00000010: a98f 9bbd 4e1a 373d 89a1 133c f483 373c
00000020: 44ca 183e c936 a3bd 799f 573c 441b 79bd
00000030: 517e 37bb ba61 8a3b 6b1d 3f3d 7abd 7e3d
00000040: a60e 5ebd ac93 cd3d 0d72 d2ba 8a95 a6b8
00000050: 18f9 eb3d e7e6 2a3c 99e3 64bc 52ec f3bc
00000060: a7d1 873c d66b bf3c 7aa8 45bd 7f52 a93d
00000070: 379e e33c b42f 66bd 058c 233c 84e2 b93c
-0.034588955 0.07897484 0.08165769 0.043989617 -0.075957604 0.04470282 0.009010681 0.011200894
0.14920908 -0.07969434 0.01316058 -0.06081702 -0.0027998874 0.0042230757 0.046658915 0.062192418
-0.05421319 0.10037932 -0.0016055718 -7.943351e-05 0.1152212 0.010431028 -0.013970279 -0.029775772
0.016579462 0.02336685 -0.048256375 0.08267688 0.027785404 -0.056197837 0.009982114 0.022691019
